…
/home/sunyahui/anaconda3/envs/difusco/lib/python3.7/site-packages/pytorch_lightning/trainer/connectors/accelerator_connector.py:479: LightningDeprecationWarning: Setting `Trainer(gpus=[0, 3])` is deprecated in v1.7 and will be removed in v2.0. Please use `Trainer(accelerator='gpu', devices=[0, 3])` instead.
  f"Setting `Trainer(gpus={gpus!r})` is deprecated in v1.7 and will be removed"
GPU available: True (cuda), used: True
TPU available: False, using: 0 TPU cores
IPU available: False, using: 0 IPUs
HPU available: False, using: 0 HPUs
----------------------------------------------------------------------------------------------------
ResidualGatedGCNModel(
  (nodes_coord_embedding): Linear(in_features=1, out_features=256, bias=False)
  (edge_embed): Sequential(
    (0): Linear(in_features=1, out_features=256, bias=True)
    (1): ReLU()
    (2): Linear(in_features=256, out_features=256, bias=True)
  )
  (gcn_layers): ModuleList(
    (0): ResidualGatedGCNLayer(
      (node_feat): NodeFeatures(
        (Us): Linear(in_features=256, out_features=256, bias=True)
        (Vs): Linear(in_features=256, out_features=256, bias=True)
      )
      (edge_feat): EdgeFeatures(
        (Us): Linear(in_features=256, out_features=256, bias=True)
        (Vs): Linear(in_features=256, out_features=256, bias=True)
      )
      (bn_node): BatchNormNode(
        (layer_norm): LayerNorm((256,), eps=1e-05, elementwise_affine=True)
      )
      (bn_edge): BatchNormEdge(
        (layer_norm): LayerNorm((256,), eps=1e-05, elementwise_affine=True)
      )
    )
    (1): ResidualGatedGCNLayer(
      (node_feat): NodeFeatures(
        (Us): Linear(in_features=256, out_features=256, bias=True)
        (Vs): Linear(in_features=256, out_features=256, bias=True)
      )
      (edge_feat): EdgeFeatures(
        (Us): Linear(in_features=256, out_features=256, bias=True)
        (Vs): Linear(in_features=256, out_features=256, bias=True)
      )
      (bn_node): BatchNormNode(
        (layer_norm): LayerNorm((256,), eps=1e-05, elementwise_affine=True)
      )
      (bn_edge): BatchNormEdge(
        (layer_norm): LayerNorm((256,), eps=1e-05, elementwise_affine=True)
      )
    )
    (2): ResidualGatedGCNLayer(
      (node_feat): NodeFeatures(
        (Us): Linear(in_features=256, out_features=256, bias=True)
        (Vs): Linear(in_features=256, out_features=256, bias=True)
      )
      (edge_feat): EdgeFeatures(
        (Us): Linear(in_features=256, out_features=256, bias=True)
        (Vs): Linear(in_features=256, out_features=256, bias=True)
      )
      (bn_node): BatchNormNode(
        (layer_norm): LayerNorm((256,), eps=1e-05, elementwise_affine=True)
      )
      (bn_edge): BatchNormEdge(
        (layer_norm): LayerNorm((256,), eps=1e-05, elementwise_affine=True)
      )
    )
    (3): ResidualGatedGCNLayer(
      (node_feat): NodeFeatures(
        (Us): Linear(in_features=256, out_features=256, bias=True)
        (Vs): Linear(in_features=256, out_features=256, bias=True)
      )
      (edge_feat): EdgeFeatures(
        (Us): Linear(in_features=256, out_features=256, bias=True)
        (Vs): Linear(in_features=256, out_features=256, bias=True)
      )
      (bn_node): BatchNormNode(
        (layer_norm): LayerNorm((256,), eps=1e-05, elementwise_affine=True)
      )
      (bn_edge): BatchNormEdge(
        (layer_norm): LayerNorm((256,), eps=1e-05, elementwise_affine=True)
      )
    )
    (4): ResidualGatedGCNLayer(
      (node_feat): NodeFeatures(
        (Us): Linear(in_features=256, out_features=256, bias=True)
        (Vs): Linear(in_features=256, out_features=256, bias=True)
      )
      (edge_feat): EdgeFeatures(
        (Us): Linear(in_features=256, out_features=256, bias=True)
        (Vs): Linear(in_features=256, out_features=256, bias=True)
      )
      (bn_node): BatchNormNode(
        (layer_norm): LayerNorm((256,), eps=1e-05, elementwise_affine=True)
      )
      (bn_edge): BatchNormEdge(
        (layer_norm): LayerNorm((256,), eps=1e-05, elementwise_affine=True)
      )
    )
    (5): ResidualGatedGCNLayer(
      (node_feat): NodeFeatures(
        (Us): Linear(in_features=256, out_features=256, bias=True)
        (Vs): Linear(in_features=256, out_features=256, bias=True)
      )
      (edge_feat): EdgeFeatures(
        (Us): Linear(in_features=256, out_features=256, bias=True)
        (Vs): Linear(in_features=256, out_features=256, bias=True)
      )
      (bn_node): BatchNormNode(
        (layer_norm): LayerNorm((256,), eps=1e-05, elementwise_affine=True)
      )
      (bn_edge): BatchNormEdge(
        (layer_norm): LayerNorm((256,), eps=1e-05, elementwise_affine=True)
      )
    )
    (6): ResidualGatedGCNLayer(
      (node_feat): NodeFeatures(
        (Us): Linear(in_features=256, out_features=256, bias=True)
        (Vs): Linear(in_features=256, out_features=256, bias=True)
      )
      (edge_feat): EdgeFeatures(
        (Us): Linear(in_features=256, out_features=256, bias=True)
        (Vs): Linear(in_features=256, out_features=256, bias=True)
      )
      (bn_node): BatchNormNode(
        (layer_norm): LayerNorm((256,), eps=1e-05, elementwise_affine=True)
      )
      (bn_edge): BatchNormEdge(
        (layer_norm): LayerNorm((256,), eps=1e-05, elementwise_affine=True)
      )
    )
    (7): ResidualGatedGCNLayer(
      (node_feat): NodeFeatures(
        (Us): Linear(in_features=256, out_features=256, bias=True)
        (Vs): Linear(in_features=256, out_features=256, bias=True)
      )
      (edge_feat): EdgeFeatures(
        (Us): Linear(in_features=256, out_features=256, bias=True)
        (Vs): Linear(in_features=256, out_features=256, bias=True)
      )
      (bn_node): BatchNormNode(
        (layer_norm): LayerNorm((256,), eps=1e-05, elementwise_affine=True)
      )
      (bn_edge): BatchNormEdge(
        (layer_norm): LayerNorm((256,), eps=1e-05, elementwise_affine=True)
      )
    )
  )
  (mlp_edges): MLP(
    (layers): Sequential()
    (output): Linear(in_features=256, out_features=1, bias=True)
    (out): Sequential(
      (0): GroupNorm32(32, 256, eps=1e-05, affine=True)
      (1): ReLU()
      (2): Conv2d(256, 1, kernel_size=(1, 1), stride=(1, 1))
    )
  )
)
----------------------------------------------------------------------------------------------------
Traceback (most recent call last):
  File "train.py", line 167, in <module>
    main(args)
  File "train.py", line 159, in main
    model = model_class.load_from_checkpoint(ckpt_path, param_args=args)
  File "/home/sunyahui/anaconda3/envs/difusco/lib/python3.7/site-packages/pytorch_lightning/core/saving.py", line 145, in load_from_checkpoint
…
