…
/home/sunyahui/anaconda3/envs/difusco/lib/python3.7/site-packages/pytorch_lightning/trainer/connectors/accelerator_connector.py:479: LightningDeprecationWarning: Setting `Trainer(gpus=[0, 3])` is deprecated in v1.7 and will be removed in v2.0. Please use `Trainer(accelerator='gpu', devices=[0, 3])` instead.
  f"Setting `Trainer(gpus={gpus!r})` is deprecated in v1.7 and will be removed"
GPU available: True (cuda), used: True
TPU available: False, using: 0 TPU cores
IPU available: False, using: 0 IPUs
HPU available: False, using: 0 HPUs
----------------------------------------------------------------------------------------------------
GNNEncoder(
  (node_embed): Linear(in_features=256, out_features=256, bias=True)
  (edge_embed): Linear(in_features=256, out_features=256, bias=True)
  (EW_embed): Linear(in_features=256, out_features=256, bias=True)
  (pos_embed): ScalarEmbeddingLinear1D(
    (scalar_proj): Linear(in_features=1, out_features=256, bias=True)
  )
  (edge_pos_embed): ScalarEmbeddingLinear(
    (edge_proj): Linear(in_features=1, out_features=256, bias=True)
  )
  (EW_pos_embed): EWEmbeddingLinear(
    (edge_proj): Linear(in_features=1, out_features=256, bias=True)
  )
  (time_embed): Sequential(
    (0): Linear(in_features=256, out_features=128, bias=True)
    (1): ReLU()
    (2): Linear(in_features=128, out_features=128, bias=True)
  )
  (out): Sequential(
    (0): GroupNorm32(32, 256, eps=1e-05, affine=True)
    (1): ReLU()
    (2): Conv2d(256, 2, kernel_size=(1, 1), stride=(1, 1))
  )
  (layers): ModuleList(
    (0): GNNLayer(
      (U): Linear(in_features=256, out_features=256, bias=True)
      (V): Linear(in_features=256, out_features=256, bias=True)
      (A): Linear(in_features=256, out_features=256, bias=True)
      (B): Linear(in_features=256, out_features=256, bias=True)
      (C): Linear(in_features=256, out_features=256, bias=True)
      (D): Linear(in_features=256, out_features=256, bias=True)
      (U_ew): Linear(in_features=256, out_features=256, bias=True)
      (V_ew): Linear(in_features=256, out_features=256, bias=True)
      (norm_h): LayerNorm((256,), eps=1e-05, elementwise_affine=True)
      (norm_e): LayerNorm((256,), eps=1e-05, elementwise_affine=True)
      (norm_ew): LayerNorm((256,), eps=1e-05, elementwise_affine=True)
    )
    (1): GNNLayer(
      (U): Linear(in_features=256, out_features=256, bias=True)
      (V): Linear(in_features=256, out_features=256, bias=True)
      (A): Linear(in_features=256, out_features=256, bias=True)
      (B): Linear(in_features=256, out_features=256, bias=True)
      (C): Linear(in_features=256, out_features=256, bias=True)
      (D): Linear(in_features=256, out_features=256, bias=True)
      (U_ew): Linear(in_features=256, out_features=256, bias=True)
      (V_ew): Linear(in_features=256, out_features=256, bias=True)
      (norm_h): LayerNorm((256,), eps=1e-05, elementwise_affine=True)
      (norm_e): LayerNorm((256,), eps=1e-05, elementwise_affine=True)
      (norm_ew): LayerNorm((256,), eps=1e-05, elementwise_affine=True)
    )
    (2): GNNLayer(
      (U): Linear(in_features=256, out_features=256, bias=True)
      (V): Linear(in_features=256, out_features=256, bias=True)
      (A): Linear(in_features=256, out_features=256, bias=True)
      (B): Linear(in_features=256, out_features=256, bias=True)
      (C): Linear(in_features=256, out_features=256, bias=True)
      (D): Linear(in_features=256, out_features=256, bias=True)
      (U_ew): Linear(in_features=256, out_features=256, bias=True)
      (V_ew): Linear(in_features=256, out_features=256, bias=True)
      (norm_h): LayerNorm((256,), eps=1e-05, elementwise_affine=True)
      (norm_e): LayerNorm((256,), eps=1e-05, elementwise_affine=True)
      (norm_ew): LayerNorm((256,), eps=1e-05, elementwise_affine=True)
    )
    (3): GNNLayer(
      (U): Linear(in_features=256, out_features=256, bias=True)
      (V): Linear(in_features=256, out_features=256, bias=True)
      (A): Linear(in_features=256, out_features=256, bias=True)
      (B): Linear(in_features=256, out_features=256, bias=True)
      (C): Linear(in_features=256, out_features=256, bias=True)
      (D): Linear(in_features=256, out_features=256, bias=True)
      (U_ew): Linear(in_features=256, out_features=256, bias=True)
      (V_ew): Linear(in_features=256, out_features=256, bias=True)
      (norm_h): LayerNorm((256,), eps=1e-05, elementwise_affine=True)
      (norm_e): LayerNorm((256,), eps=1e-05, elementwise_affine=True)
      (norm_ew): LayerNorm((256,), eps=1e-05, elementwise_affine=True)
    )
    (4): GNNLayer(
      (U): Linear(in_features=256, out_features=256, bias=True)
      (V): Linear(in_features=256, out_features=256, bias=True)
      (A): Linear(in_features=256, out_features=256, bias=True)
      (B): Linear(in_features=256, out_features=256, bias=True)
      (C): Linear(in_features=256, out_features=256, bias=True)
      (D): Linear(in_features=256, out_features=256, bias=True)
      (U_ew): Linear(in_features=256, out_features=256, bias=True)
      (V_ew): Linear(in_features=256, out_features=256, bias=True)
      (norm_h): LayerNorm((256,), eps=1e-05, elementwise_affine=True)
      (norm_e): LayerNorm((256,), eps=1e-05, elementwise_affine=True)
      (norm_ew): LayerNorm((256,), eps=1e-05, elementwise_affine=True)
    )
    (5): GNNLayer(
      (U): Linear(in_features=256, out_features=256, bias=True)
      (V): Linear(in_features=256, out_features=256, bias=True)
      (A): Linear(in_features=256, out_features=256, bias=True)
      (B): Linear(in_features=256, out_features=256, bias=True)
      (C): Linear(in_features=256, out_features=256, bias=True)
      (D): Linear(in_features=256, out_features=256, bias=True)
      (U_ew): Linear(in_features=256, out_features=256, bias=True)
      (V_ew): Linear(in_features=256, out_features=256, bias=True)
      (norm_h): LayerNorm((256,), eps=1e-05, elementwise_affine=True)
      (norm_e): LayerNorm((256,), eps=1e-05, elementwise_affine=True)
      (norm_ew): LayerNorm((256,), eps=1e-05, elementwise_affine=True)
    )
    (6): GNNLayer(
      (U): Linear(in_features=256, out_features=256, bias=True)
      (V): Linear(in_features=256, out_features=256, bias=True)
      (A): Linear(in_features=256, out_features=256, bias=True)
      (B): Linear(in_features=256, out_features=256, bias=True)
      (C): Linear(in_features=256, out_features=256, bias=True)
      (D): Linear(in_features=256, out_features=256, bias=True)
      (U_ew): Linear(in_features=256, out_features=256, bias=True)
      (V_ew): Linear(in_features=256, out_features=256, bias=True)
      (norm_h): LayerNorm((256,), eps=1e-05, elementwise_affine=True)
      (norm_e): LayerNorm((256,), eps=1e-05, elementwise_affine=True)
      (norm_ew): LayerNorm((256,), eps=1e-05, elementwise_affine=True)
    )
    (7): GNNLayer(
      (U): Linear(in_features=256, out_features=256, bias=True)
      (V): Linear(in_features=256, out_features=256, bias=True)
      (A): Linear(in_features=256, out_features=256, bias=True)
      (B): Linear(in_features=256, out_features=256, bias=True)
      (C): Linear(in_features=256, out_features=256, bias=True)
      (D): Linear(in_features=256, out_features=256, bias=True)
      (U_ew): Linear(in_features=256, out_features=256, bias=True)
      (V_ew): Linear(in_features=256, out_features=256, bias=True)
      (norm_h): LayerNorm((256,), eps=1e-05, elementwise_affine=True)
      (norm_e): LayerNorm((256,), eps=1e-05, elementwise_affine=True)
      (norm_ew): LayerNorm((256,), eps=1e-05, elementwise_affine=True)
    )
  )
  (time_embed_layers): ModuleList(
    (0): Sequential(
      (0): ReLU()
      (1): Linear(in_features=128, out_features=256, bias=True)
    )
    (1): Sequential(
      (0): ReLU()
      (1): Linear(in_features=128, out_features=256, bias=True)
    )
    (2): Sequential(
      (0): ReLU()
      (1): Linear(in_features=128, out_features=256, bias=True)
    )
    (3): Sequential(
      (0): ReLU()
      (1): Linear(in_features=128, out_features=256, bias=True)
    )
    (4): Sequential(
      (0): ReLU()
      (1): Linear(in_features=128, out_features=256, bias=True)
    )
    (5): Sequential(
      (0): ReLU()
      (1): Linear(in_features=128, out_features=256, bias=True)
    )
    (6): Sequential(
      (0): ReLU()
      (1): Linear(in_features=128, out_features=256, bias=True)
    )
    (7): Sequential(
      (0): ReLU()
      (1): Linear(in_features=128, out_features=256, bias=True)
    )
  )
  (per_layer_out): ModuleList(
    (0): Sequential(
      (0): LayerNorm((256,), eps=1e-05, elementwise_affine=True)
      (1): SiLU()
      (2): Linear(in_features=256, out_features=256, bias=True)
    )
    (1): Sequential(
      (0): LayerNorm((256,), eps=1e-05, elementwise_affine=True)
      (1): SiLU()
      (2): Linear(in_features=256, out_features=256, bias=True)
    )
    (2): Sequential(
      (0): LayerNorm((256,), eps=1e-05, elementwise_affine=True)
      (1): SiLU()
      (2): Linear(in_features=256, out_features=256, bias=True)
    )
    (3): Sequential(
      (0): LayerNorm((256,), eps=1e-05, elementwise_affine=True)
      (1): SiLU()
      (2): Linear(in_features=256, out_features=256, bias=True)
    )
    (4): Sequential(
      (0): LayerNorm((256,), eps=1e-05, elementwise_affine=True)
      (1): SiLU()
      (2): Linear(in_features=256, out_features=256, bias=True)
    )
    (5): Sequential(
      (0): LayerNorm((256,), eps=1e-05, elementwise_affine=True)
      (1): SiLU()
      (2): Linear(in_features=256, out_features=256, bias=True)
    )
    (6): Sequential(
      (0): LayerNorm((256,), eps=1e-05, elementwise_affine=True)
      (1): SiLU()
      (2): Linear(in_features=256, out_features=256, bias=True)
    )
    (7): Sequential(
      (0): LayerNorm((256,), eps=1e-05, elementwise_affine=True)
      (1): SiLU()
      (2): Linear(in_features=256, out_features=256, bias=True)
    )
  )
)
----------------------------------------------------------------------------------------------------
Initializing distributed: GLOBAL_RANK: 0, MEMBER: 1/2
----------------------------------------------------------------------------------------------------
distributed_backend=nccl
All distributed processes registered. Starting with 2 processes
…
